…
        self.fc1 = nn.Linear(18 * 61 * 61, 120)
        self.fc2 = nn.Linear(120, 84)
        self.fc3 = nn.Linear(84, 5)

    def forward(self, x):
        x = self.pool(F.relu(self.conv1(x)))
        x = self.pool(F.relu(self.conv2(x)))
        x = torch.flatten(x, 1) # flatten all dimensions except batch
        x = F.relu(self.fc1(x))
        x = F.relu(self.fc2(x))
        x = self.fc3(x)
        return x


net = Net()
net.to(device)
&lt;/code&gt;&lt;/pre&gt;

&lt;div class=&quot;language-plaintext highlighter-rouge&quot;&gt;&lt;div class=&quot;highlight&quot;&gt;&lt;pre class=&quot;highlight&quot;&gt;&lt;code&gt;Net(
  (conv1): Conv2d(3, 6, kernel_size=(5, 5), stride=(1, 1))
  (pool): MaxPool2d(kernel_size=2, stride=2, padding=0, dilation=1, ceil_mode=False)
  (conv2): Conv2d(6, 18, kernel_size=(5, 5), stride=(1, 1))
  (fc1): Linear(in_features=66978, out_features=120, bias=True)
  (fc2): Linear(in_features=120, out_features=84, bias=True)
  (fc3): Linear(in_features=84, out_features=5, bias=True)
)
&lt;/code&gt;&lt;/pre&gt;&lt;/div&gt;&lt;/div&gt;

&lt;p&gt;The details of each layer can be seen in the output of the previous cell.&lt;br /&gt;&lt;br /&gt;
Now we’ll define the loss function and the optimizer for our model. Cross Entropy can be defined as a measure of dissimilarity between two probability distributions for a given random variable. In our case we are looking at the difference between the prediction made and how far is it from the actual label.&lt;br /&gt;
…
        x = self.pool(F.leaky_relu(self.conv1(x)))
        x = self.pool(F.leaky_relu(self.conv2(x)))
        x = self.pool(F.leaky_relu(self.conv3(x)))
        x = torch.flatten(x, 1) # flatten all dimensions except batch
        x = F.leaky_relu(self.fc1(x))
        x = F.leaky_relu(self.fc2(x))
        x = F.leaky_relu(self.fc3(x))
        x = self.fc4(x)
        return x


net1 = Net1()
net1.to(device)
&lt;/code&gt;&lt;/pre&gt;

&lt;div class=&quot;language-plaintext highlighter-rouge&quot;&gt;&lt;div class=&quot;highlight&quot;&gt;&lt;pre class=&quot;highlight&quot;&gt;&lt;code&gt;Net1(
  (conv1): Conv2d(3, 6, kernel_size=(5, 5), stride=(1, 1))
  (conv2): Conv2d(6, 12, kernel_size=(5, 5), stride=(1, 1))
  (conv3): Conv2d(12, 18, kernel_size=(5, 5), stride=(1, 1))
  (pool): MaxPool2d(kernel_size=2, stride=2, padding=0, dilation=1, ceil_mode=False)
  (fc1): Linear(in_features=14112, out_features=128, bias=True)
  (fc2): Linear(in_features=128, out_features=64, bias=True)
  (fc3): Linear(in_features=64, out_features=32, bias=True)
  (fc4): Linear(in_features=32, out_features=5, bias=True)
)
&lt;/code&gt;&lt;/pre&gt;&lt;/div&gt;&lt;/div&gt;

&lt;p&gt;The previous implementation was a tad bit inefficient and didn’t encourage reusability of code. So before starting training, let us define appropriate functions for training and testing the network.&lt;/p&gt;

&lt;pre&gt;&lt;code class=&quot;python&quot;&gt;
def forwardPass(net,inputs, labels, train=False):
…
        x = self.pool(self.bnorm3(F.leaky_relu(self.conv3(x))))
        x = self.pool(self.bnorm4(F.leaky_relu(self.conv4(x))))
        x = self.pool(self.bnorm5(F.leaky_relu(self.conv5(x))))
        x = torch.flatten(x, 1) # flatten all dimensions except batch
        x = self.dropout(F.leaky_relu(self.fc1(x)))
        x = self.dropout(F.leaky_relu(self.fc2(x)))
        x = self.fc6(x)
        return x


net2 = Net2()
net2.to(device)
&lt;/code&gt;&lt;/pre&gt;

&lt;div class=&quot;language-plaintext highlighter-rouge&quot;&gt;&lt;div class=&quot;highlight&quot;&gt;&lt;pre class=&quot;highlight&quot;&gt;&lt;code&gt;Net2(
  (conv1): Conv2d(3, 64, kernel_size=(5, 5), stride=(1, 1))
  (pool): MaxPool2d(kernel_size=2, stride=2, padding=0, dilation=1, ceil_mode=False)
  (bnorm1): BatchNorm2d(64, eps=1e-05, momentum=0.1, affine=True, track_running_stats=True)
  (dropout): Dropout(p=0.3, inplace=False)
  (conv2): Conv2d(64, 128, kernel_size=(3, 3), stride=(1, 1))
  (bnorm2): BatchNorm2d(128, eps=1e-05, momentum=0.1, affine=True, track_running_stats=True)
  (conv3): Conv2d(128, 256, kernel_size=(3, 3), stride=(1, 1))
  (bnorm3): BatchNorm2d(256, eps=1e-05, momentum=0.1, affine=True, track_running_stats=True)
  (conv4): Conv2d(256, 512, kernel_size=(3, 3), stride=(1, 1))
  (bnorm4): BatchNorm2d(512, eps=1e-05, momentum=0.1, affine=True, track_running_stats=True)
  (conv5): Conv2d(512, 1024, kernel_size=(3, 3), stride=(1, 1))
  (bnorm5): BatchNorm2d(1024, eps=1e-05, momentum=0.1, affine=True, track_running_stats=True)
  (fc1): Linear(in_features=36864, out_features=512, bias=True)
  (fc2): Linear(in_features=512, out_features=256, bias=True)
  (fc6): Linear(in_features=256, out_features=5, bias=True)
)
&lt;/code&gt;&lt;/pre&gt;&lt;/div&gt;&lt;/div&gt;

&lt;p&gt;In this instance, we’ll select the model which performs best on validation set as the final model. This will increase the odds of selecting a model that is not very overfitted (some overfitting is always desired).&lt;/p&gt;

&lt;pre&gt;&lt;code class=&quot;python&quot;&gt;
from tqdm import tqdm
…
